Week9/Day6/mnist_model.pth (torch, 440176 bytes, 6 tensors)

fc1.weight f4 [128, 784]
00000000: b8b8 31bd 7b44 87bc 702c 37bd 0383 dabc
00000010: ac6f 3bbd d584 a53c 552e a6bc e43b fcbc
00000020: 4cfe f03b d76e c3bc 40d4 223a 6499 70bc
00000030: c58a 2cbd ef80 08bc a12c 773c 14f4 69bc
00000040: aa96 24bc 7248 53bc 20f3 21bd 7bb3 d7bc
00000050: 9c04 34bc cb72 76bc 0e06 7cbc fa87 edbc
00000060: 172e d7bc 1830 0dbc 13a0 b7bc d73d 9abc
00000070: 2553 07bd 2609 06bd 3db3 2bbd 7445 3fbd
00000080: 00b6 34bc 950b 993c a194 c93b cf54 acbb
00000090: 294f cbbc 57b8 07bd 10a8 d9bc 4dff 91bb
000000a0: b17d 1ebd 1091 723c cf5f 873c c78d 343b
000000b0: f2f6 b1bc 94da 04bc 2d5a ecbc 6017 09bd
000000c0: d0b7 94bc 8e14 09bd 5236 16bd f353 243c
000000d0: 3cf8 f33a cbca ebbc 23d2 11bd 9940 42bb
000000e0: d62d 873c 7682 2dbd 4927 1abd b9e0 25bc
000000f0: d6dc 8d3c bf79 42bd b6e2 6f3c bc07 4c3c
00000100: 3fc5 45bd af07 293c 94e8 29bd d9f7 53bd
00000110: 7848 24bd 563f e1bc 138c b5bc ff68 61bd
00000120: 911c 99bc b590 29bd 1556 74bd 261f 94bd
00000130: 67fd 4fbd 9845 babc 4b7b 3abd aafe a0bc
00000140: 30ab 01bd 6cae 843c 4d2f 9abc 253e b3bc
00000150: f575 1ebd 1670 613b 5348 9fbc 60d4 fcb8
00000160: 54ca 863b eeab ecbc 258b 06bc bb6c 743b
00000170: 6445 cdbb 0dbf 71bd 0c4e f6bc 4369 76bd
00000180: e0eb 09be 28c5 06be 4498 81bd 88cb abbd
00000190: bf61 24bd 73bc 5ebd 9cb4 89bd b6b6 bbbd
000001a0: 2786 ebbc 6ce2 76bb ee9b 36bd 4a89 f53b
000001b0: bcf8 41bd 6f93 dfbc 3588 20bd 2eac 16bd
000001c0: 742c 803b 4071 70b9 94e1 2dbc b978 dabc
000001d0: 2db7 2d3c f02f d9bc 33ab 8cbd 63f8 10bd
000001e0: 7257 dcbc 9720 b0bd d67c 87bd 1c36 2dbc
000001f0: 590c 193c 07b7 18bd f2a5 ef3c 7b2e bf3c
00000200: 584c f83c 7bbb 853d 8642 053d 62f1 edbc
00000210: 1e80 423b 4eec a43b 64c5 713b e929 353b
00000220: 7211 3d3d dcd1 9b3c 7170 f3bc 9a89 f5bc
00000230: cabd 27bd 2980 e6bc 4c74 563c 403e ff3b
00000240: 151b 19bd 8df4 18bd e69f 5ebd 25a6 26bb
00000250: ff08 0bbd c7cc 73bd 832a 36bd 10e5 c43d
00000260: 7ced e83d 3bd5 913d cea1 fc3d 3fed 9a3d
00000270: df18 cf3d 3ac0 193e 8bf9 0f3e fa2d 003d
00000280: 5176 733d 1cff 6b3d 943c 353b 13a9 fdbc
00000290: 5642 0f3d 7bfd f0bb b92f 733c 46b2 dd3b
000002a0: 3f89 2ebd 9407 1dbd 9caf a0bb ba49 40bd
000002b0: 873c 6dbd 3e59 05bd df74 bbbd 33de 19bd
000002c0: 5c8e 1fbd 3fae ef3b cf9e 113a 5060 303d
000002d0: b5b7 363d 0888 8f3d eac7 233e fa11 543e
000002e0: 40c9 de3d 8c69 b43d 0b2e 863d f80b c03d
000002f0: 3dc1 223d 7d46 483d 7420 f33d 2d69 c73d
00000300: 6218 27bc a11e 853d 9f4a 27bd 6022 23bd
00000310: 6077 31bd 25a5 43bd 2087 2cbd cdda 69bd
00000320: 74e4 96bd 4bdf a0bc 3081 2e3b 2380 183c
00000330: 72ad 053d 402c 3c3d dc48 a93b b189 013d
00000340: d3e4 c4bc 9557 ab3d 62bb ac3c af48 3a3c
00000350: d062 7d3d 0ad0 713d bfed a63d 2826 293d
00000360: 32ec 9cbb 34de e83d 85f9 383e fb99 2b3e
00000370: ffef b93d 2038 5e3d 46bb 14bd e605 963c
00000380: 540b 323c d502 623c 4553 d83a 7a72 34bd
00000390: e411 89bd 388a 21bd c80e c33c d45f 893c
000003a0: 7aa6 07bd 9f42 053d 665d 803d 7c39 9c3d
000003b0: 2cd4 273d 7177 9bbd 1a10 19be 360c 25be
000003c0: 8da6 c2bd a42a 8fba 0e9f 723d 5a7b 1b3d
000003d0: de8b 093c c3e1 2b3e fbd0 4d3e dfa8 583e
000003e0: 7ba8 163e ac7b 583d f10d 623c ecf9 09bd
000003f0: c31a cb3a 8de7 c8bc 70a3 1abc 91e7 ce3b
-0.043389052 -0.016512146 -0.044720113 -0.0266738 -0.045760795 0.02020494 -0.020285765 -0.030790277
0.0073545333 -0.023856563 0.0006211437 -0.014685009 -0.04212453 -0.008331521 0.015086324 -0.014279384
-0.010045687 -0.01289569 -0.039538503 -0.0263307 -0.010987427 -0.015042017 -0.015382303 -0.028995503
-0.026267095 -0.0086174235 -0.022415197 -0.018828316 -0.033038277 -0.03272357 -0.04191898 -0.046697095
-0.01102972 0.01868228 0.006151751 -0.0052591334 -0.02481802 -0.033134785 -0.026569396 -0.004455483
-0.038694087 0.014805093 0.016525177 0.0027550326 -0.021724198 -0.008108754 -0.028851593 -0.033469558
-0.018154055 -0.033466868 -0.036672898 0.010029781 0.0018613408 -0.028783223 -0.035600793 -0.0029640554
0.016501348 -0.042360745 -0.03763512 -0.010124379 0.017317217 -0.047479387 0.014641454 0.012453016
-0.04828381 0.010316773 -0.04148157 -0.051750038 -0.040108174 -0.027496021 -0.02216152 -0.055031773
-0.01869038 -0.04139777 -0.059652407 -0.072325036 -0.050778773 -0.022738263 -0.045527738 -0.019652683
-0.031657398 0.016196452 -0.018821383 -0.021880219 -0.03868671 0.0034399084 -0.019443667 -0.00012055854
0.004113475 -0.028890576 -0.008211886 0.0037296254 -0.0062643755 -0.05902009 -0.030066513 -0.06015898
-0.13468885 -0.13161147 -0.063278705 -0.0838843 -0.04013228 -0.054378938 -0.06723902 -0.09165709
-0.028750492 -0.003767158 -0.0445823 0.007493173 -0.047356352 -0.027291982 -0.039192397 -0.036785297
0.003911549 -0.00022930373 -0.010612864 -0.026668893 0.010602755 -0.026512116 -0.06868591 -0.03539313
-0.026897166 -0.08599966 -0.066156074 -0.010571983 0.009341323 -0.037283923 0.029253934 0.023337593
0.030309841 0.065299 0.032534145 -0.029045764 0.0029678415 0.0050330525 0.0036891336 0.0027643389
0.046159215 0.019020967 -0.029716702 -0.02997284 -0.04095248 -0.028137283 0.013089251 0.007789403
-0.037379343 -0.037342597 -0.05435171 -0.002542862 -0.033944126 -0.059521463 -0.044474136 0.09614003
0.113734215 0.071207486 0.12335549 0.07564782 0.10112166 0.15014735 0.14060037 0.031293847
0.059439007 0.057616338 0.0027654516 -0.03096441 0.034975372 -0.007354436 0.014842921 0.0067656366
-0.042611357 -0.038337305 -0.004903747 -0.04694531 -0.05791905 -0.03255581 -0.09153151 -0.03756542
-0.038954124 0.007314473 0.00055549754 0.0430606 0.04460879 0.07008368 0.1599423 0.20709983
0.10878229 0.08809194 0.06551751 0.09377283 0.039735068 0.048895348 0.11871424 0.097368576
-0.010198684 0.064999826 -0.04084265 -0.039827704 -0.043326735 -0.047764916 -0.042121053 -0.05709343
-0.07367793 -0.019637724 0.0026627295 0.009307894 0.032636113 0.045940638 0.005166156 0.031625453
-0.024034893 0.08366314 0.021085445 0.011369868 0.061861813 0.059036292 0.08150815 0.041296154
-0.004788899 0.11370507 0.18063934 0.16757958 0.09078979 0.054252744 -0.03631141 0.01831336
0.010866959 0.0137946205 0.0016504308 -0.044054486 -0.066928655 -0.039438456 0.02381076 0.016769327
-0.03311775 0.032534238 0.06267814 0.07628152 0.040973827 -0.07591141 -0.14947549 -0.1611794
-0.09504423 -0.0010922742 0.059233718 0.037959434 0.008395163 0.1678534 0.20099251 0.21158169
0.14712708 0.052852318 0.013797269 -0.03368561 0.0015495647 -0.024524475 -0.009438381 0.006314226

fc1.bias f4 [128]
00000000: bf78 fa3c cd1c 073c 1cc0 233d 63ee 17bd
00000010: b6f6 603b 51a3 f0ba f9ea 793b ca01 03bd
00000020: 9573 243a 78ec 0dbb 418a a9bc 8200 fe3c
00000030: 1a98 693c 93ff ac3c e34c 29bd 851c 67bd
00000040: ef99 aebc 5291 dbba f398 f5bc f7c8 973c
00000050: 260f f0bc e196 a23c 9f8c debc de1e 2e3c
00000060: 39b4 8d3c d7aa 62bb 7deb 07bd 6e2d b43c
00000070: ccef e83c 9d11 fbbc 3fc8 22bd 4040 15bd
00000080: fa73 bf3c 4a32 b53c 8d49 06bd 1dec eb3c
00000090: b434 afbc 41db abbb 4115 8fba d2d1 5abc
000000a0: 65b6 9c3b 43e6 c03c 6c4d da3b bcd0 853c
000000b0: 665a 09bc 9376 8abc cc16 b2bc bc12 61bc
000000c0: e3be b43c 5570 2abc a108 ebbc 7095 33bc
000000d0: 2d0b 3fbd ea4f 1fbc 6f6c 14bd e89f 14bd
000000e0: 535a 993c df68 c13c 76de a83c 4bcf c93c
000000f0: f805 ae3c b129 2d3b 4b6f 303b 44e8 aabc
00000100: 7231 ecbc f88e 15bc 83a9 23bd 8584 a2bc
00000110: 5c02 a03c c325 9c3c 5a06 323a d9b8 a2bc
00000120: 2897 2039 9b59 0b3c 103d 3c3c 22fd 12bc
00000130: b05e 9d3c 257d a3b9 b763 2bbd 94f4 49bd
00000140: d868 ea3c 7950 2dbc 8d7a a0bc 330d 22bd
00000150: 36de 95bc db8c d53c 9a7b 71bc 34a3 9dbc
00000160: 5c31 783b 6e1f bd3c 2b1c 74bd 5623 323c
00000170: 062b d1bb 44ed bf3b fb4a 88bc a51e 3c3b
00000180: bd58 aebc 7852 d8bc 6104 403c f249 e2bc
00000190: 1007 9ebc 1837 04bd c78c abbb d5b6 12bd
000001a0: ab5c 0dbd 3b52 0cbd 3acd e4bc 880b 52bd
000001b0: 4fc3 87bd e7c2 393c 754f 23bd 8ff0 10bd
000001c0: 3422 a03b a572 19bd dc14 d93b accb 9abc
000001d0: 792a b4bc 1665 34bc 2ae1 c8bc 0189 d43c
000001e0: c4b5 b4bc 2288 d2bc 67fe 973b 6f26 263c
000001f0: bb77 14bd 2784 43bd 1dcd a1bb 8867 37bb
0.030575154 0.008246613 0.03997813 -0.037092578 0.0034326739 -0.0018359219 0.003813444 -0.031984128
0.00062733266 -0.002165584 -0.020695807 0.031006102 0.014257455 0.021117961 -0.04133309 -0.056423683
-0.021313636 -0.0016751683 -0.029980158 0.018528445 -0.029304098 0.019847335 -0.027166663 0.0106274765
0.01729785 -0.0034586692 -0.033183564 0.021994319 0.028434657 -0.030648047 -0.03974175 -0.036438227
0.023370732 0.022118706 -0.032784987 0.028799111 -0.021387435 -0.005244643 -0.0010916368 -0.013355689
0.0047824853 0.023547297 0.0066620614 0.016334884 -0.008383369 -0.016902244 -0.021739386 -0.013737377
0.022063678 -0.010402759 -0.028690638 -0.010960922 -0.046641517 -0.009723643 -0.036236223 -0.03628531
0.018719828 0.023609577 0.02061389 0.024634978 0.02124308 0.0026422555 0.0026921805 -0.020862706
-0.028832171 -0.009128325 -0.03995658 -0.01983858 0.019532375 0.019060975 0.00067911076 -0.019863533
0.00015315099 0.00850525 0.011489168 -0.008971484 0.01921019 -0.00031183023 -0.041843142 -0.049305514
0.028614447 -0.010578268 -0.019589687 -0.03956337 -0.018294435 0.026068142 -0.014738942 -0.01924286
0.0037871217 0.023086276 -0.059597176 0.010872683 -0.0063833026 0.0058571417 -0.016637316 0.002870479
-0.021282548 -0.026406512 0.011719794 -0.02762315 -0.019290477 -0.032279104 -0.005235288 -0.035818893
-0.034512203 -0.03425811 -0.02792989 -0.05128053 -0.06629049 0.011337972 -0.039870698 -0.035385665
0.00488689 -0.03746285 0.006624801 -0.018895946 -0.021992909 -0.011010429 -0.02452143 0.025944235
-0.022059329 -0.025699679 0.0046384814 0.010140999 -0.036246996 -0.047733452 -0.0049377815 -0.0027985293

fc2.weight f4 [64, 128]
00000000: 657b 1dbe dd0c 8f3d cb4e 8cbd f2a8 a9bc
00000010: 40c8 083b 7d37 50be 6590 f3bc 7f2d 01b9
00000020: f6f4 993d 6799 a5bc 6fbc 11bc 4a14 143d
00000030: ac94 34bd bf3f b73c 4b76 5e3d 30c4 393e
00000040: 0445 f5bd 2f93 d5bb f6ba 983d 886d 87bd
00000050: 3fce 5c3d 243a a63d e1bd 72bd c31b 7dbd
00000060: 0cb6 ec3d 70f1 583e 0739 96bc 0d03 653d
00000070: 56e7 7ebd ce93 bd3c 954c 05bd ed7e cabb
00000080: 3dd8 a73d 7c90 9d3d 7798 bb3d 5e96 f1bd
00000090: 3f07 a83d 884a 873c 23bb dfbc 8bfa d83d
000000a0: ba68 1a3d 7337 bd3d 9b8c 8dbd 4137 f8bd
000000b0: fdbc 703d a9b4 e33c db2c 18bd 65db 98bd
000000c0: 0970 57be b51b 7cbd d420 713b 3f67 403d
000000d0: e6f1 893d 4789 6dbd 9225 d1bc 91bc 0b3d
000000e0: bf3e 2ebd dc4c 683d 9bff 443b 6083 993d
000000f0: e53b c43b acfc 64be 3190 05bc d0f6 96bc
00000100: b955 003e 7a34 4f3c 6e4a 7bbc c9d8 303e
00000110: 30a3 d73c c7b5 83bd 256e e13c 320c f13d
00000120: 1cd4 07bd 1b02 f1bb b8ce ac3d 107d 9abc
00000130: 5587 5a3d 41b1 1a3d 75ef a53d 7e57 7c3e
00000140: b66f d7bd e294 9dbd d6a0 02be 4ac8 073d
00000150: 4b83 29ba 1ba8 713c 766d 2bbe 22b6 2b3d
00000160: 3317 12be 7126 283c 9d9d 1d3d 309c 25bd
00000170: dc21 353e 66af 6c3c 90f8 0abd e40d 113c
00000180: 1d79 3b3d 3369 173d 0226 c7bc feed 513e
00000190: e3f9 a7bc 087e 863b 16b8 cd3b 924e 0cbe
000001a0: e626 993c 3cbb 4fbd cbcd 1d3d e158 9bba
000001b0: c884 0ebe 4724 89be f891 8abd c665 efbd
000001c0: 234f 1abb 9d33 f43d 276c 94bc 821a 75bd
000001d0: dc8b 0fbe 505e cc3b 5180 a33c e409 85be
000001e0: 2729 273d d338 b0bc 0ef8 0c3e 7cdd 5d3e
000001f0: 11c7 2cbe bc8e c43d ae58 b6bc 96da 7abd
00000200: 7973 56bd 2df5 053c 3e9a 04be 423a d73d
00000210: 26af d5bc 9f7e 4cbe 68cb 8a3b 22f2 adbd
00000220: 97db 8d39 e9ac 703d 255c 4a3c 3d97 ccbd
00000230: 32a4 9fbc d2a7 e9bc 6ac5 843d 8221 023e
00000240: 0250 f6bd 903b c1bc 552e 10bd c028 47bd
00000250: 6936 fb3c 4686 03bd 493b ad3d b3a8 9a3d
00000260: efd5 89bd 081a 563c 2189 1d3d d139 64be
00000270: 27a7 423d ae6e d73d 0c6e dabc 807b 86bd
00000280: 0c84 013e 6cf4 25bd f907 3e3d a59c 15bd
00000290: 4911 50be 7105 b4bc 3ae4 4bbd ed8a 103e
000002a0: 8c3b 803d 466f 8b3d 29fb 843d 4b22 043b
000002b0: 8b0d 98bc 26c9 85bd b5f9 34be f312 f2bc
000002c0: 0f8f 3b3d 0ee4 af3d e659 873d 9947 02be
000002d0: 14b6 e83d 4cf7 aabd 011b 5abd 9a9d b8b9
000002e0: fb19 4dbd 1024 b53a 6ca6 55be ad16 d63c
000002f0: ad64 39bd e63d 89bd d105 8f3d d222 213d
00000300: 3448 06be 5fbc 8cbd aada 52bd 3b12 52bd
00000310: 63da a8bd cb02 5d3c 7d6b 3abd 8789 803d
00000320: 2078 abbc 1b0c 48bd 5b16 25b9 8f44 ddbd
00000330: 0a2f 25bd 4ec4 393b b391 633d 3ffe 55bd
00000340: 447d 47bd 8a8a 803d 4333 0cbe 3ff9 833d
00000350: 4ed7 b9bc 3fd0 2cbd b6bc 88be 2e1e 0a3e
00000360: e011 103e 2c43 97bd 6716 00be 510a 2fbd
00000370: ae58 003d 26de 00be 29fd 733d 7f1f 883d
00000380: a3ef 563d 5dd1 9c3b e4ea 2dbe 952a 83bc
00000390: e247 04bd d3dd ac3d 5c4f 443c bae1 73be
000003a0: 9b3f 0fbd 0ca4 35ba 5dc1 45bd 5af7 3f3b
000003b0: 8f7a 05be bd46 783c 1675 ae3d e96a f4bd
000003c0: 678b 6dbd efa1 4e3d 9303 733d 9137 0e3e
000003d0: 4c23 85bd 82d1 213d adf3 22be 7c3b 0ebe
000003e0: 6bda c8bc f94f 9f3c b797 0a3d 60f1 42bd
000003f0: 74b8 e5bd 79a3 8abe 2e67 a93d c3d4 b33c
-0.15379103 0.06984875 -0.06850966 -0.020710442 0.0020871311 -0.20333667 -0.029731939 -0.00012319347
0.07517426 -0.02021475 -0.008895024 0.03615216 -0.044087097 0.022369264 0.05431203 0.18141246
-0.11976054 -0.00651779 0.07457535 -0.06612688 0.05390763 0.08116558 -0.059263114 -0.061794054
0.1155816 0.21185851 -0.01833774 0.055911113 -0.062232338 0.023141768 -0.032543737 -0.0061796815
0.08195541 0.07693574 0.0915994 -0.117962584 0.08204507 0.016515031 -0.027310913 0.10594662
0.03769753 0.09239092 -0.06911584 -0.12119914 0.058773983 0.027796106 -0.037152153 -0.07463721
-0.21038832 -0.06154986 0.0036793249 0.046973463 0.067355916 -0.057992246 -0.02553061 0.034115378
-0.042540308 0.056713924 0.003005958 0.07495761 0.0059885853 -0.22362012 -0.008152054 -0.018428236
0.125327 0.012646789 -0.01533757 0.17270197 0.026322931 -0.06431156 0.027518341 0.11769904
-0.033161268 -0.0073549873 0.08437866 -0.018858463 0.05335172 0.0377667 0.081023134 0.2464275
-0.10519354 -0.07694413 -0.12756667 0.033149995 -0.00064664026 0.014749552 -0.16740975 0.041921742
-0.14266662 0.010263071 0.03848039 -0.040432155 0.17688698 0.014446115 -0.033928454 0.008853409
0.0457698 0.03696556 -0.024310116 0.20500943 -0.020504897 0.0041043796 0.0062780483 -0.13701847
0.018695306 -0.05071567 0.038526338 -0.001185205 -0.1391784 -0.2678549 -0.067661226 -0.116893336
-0.0023545704 0.11923907 -0.018117977 -0.059839733 -0.14018196 0.006236829 0.019958647 -0.25984108
0.04081073 -0.02151147 0.137665 0.21666521 -0.16872813 0.09597537 -0.022259083 -0.061243616
-0.052356217 0.00817613 -0.12949464 0.10509159 -0.026084494 -0.19970177 0.0042356737 -0.08493449
0.00027057223 0.05875865 0.0123510705 -0.09989784 -0.019487474 -0.028522406 0.06482966 0.12708095
-0.12026979 -0.023587972 -0.035200436 -0.048622847 0.030665593 -0.032110475 0.08458573 0.07551708
-0.06730258 0.01306773 0.038460854 -0.2228768 0.04752269 0.10519157 -0.026663803 -0.065665245
0.12648028 -0.040516302 0.046394322 -0.03652634 -0.20319094 -0.02197525 -0.0497782 0.14115496
0.06261358 0.06808333 0.064932175 0.0020162042 -0.018561145 -0.06532507 -0.1767338 -0.029550051
0.04579073 0.0858842 0.06608944 -0.12722625 0.11362854 -0.083479494 -0.05324841 -0.00035212637
-0.050073605 0.0013819952 -0.20864266 0.02613386 -0.045262028 -0.06701259 0.06983531 0.039339848
-0.13113481 -0.068718664 -0.051478066 -0.051286917 -0.08244779 0.013489435 -0.045512665 0.06276231
-0.020931304 -0.04883967 -0.00015743954 -0.10804092 -0.040328063 0.0028345766 0.05555887 -0.05224442
-0.048703447 0.06276424 -0.1369143 0.06444024 -0.022685673 -0.042190786 -0.26706475 0.13488075
0.14069319 -0.07385859 -0.12508546 -0.042734448 0.03133457 -0.12584743 0.059567604 0.066466324
0.05247463 0.0047857002 -0.16984135 -0.016011516 -0.032295115 0.08440747 0.011981811 -0.23816577
-0.03497277 -0.0006929047 -0.04828011 0.002929172 -0.13035034 0.015153584 0.08518426 -0.11934454
-0.057994273 0.0504474 0.05932958 0.13888384 -0.06500873 0.039506443 -0.15913267 -0.13889879
-0.024518212 0.019447314 0.033836093 -0.047593474 -0.11216822 -0.27077845 0.08271633 0.021952039

fc2.bias f4 [64]
00000000: cdba 88bd 3287 d4bd fa51 b3bd 2d98 913b
00000010: 9058 0abc 0f3a 203d a99c 293c b7ab 7c3d
00000020: 3ddd 673c 94e0 b3bd 36d6 113e 6538 f8bd
00000030: 13d9 2ebd 104c a2bd 49b4 053e f1d1 8a3d
00000040: da18 05bd 055d 0e3e 9a12 9a3d 2da3 ebbd
00000050: 3eb0 a3bd 4320 b43c 6b1d 37be 6cd3 95bd
00000060: 21d4 bfbd 87e8 cdbc 57c3 9ebc 687e d8bc
00000070: a44d b8bd 732a 1f3e f424 db3d 7196 f8bc
00000080: 2395 dd3d 23da f43c 29da 57bd 1366 4bbc
00000090: ce61 5bbd 1f3c 483c bf49 83bd 1bb5 093e
000000a0: 5fd7 693e a920 2cbe b7c7 07be 3545 033e
000000b0: 7d55 16be aeb7 51bc dd52 243e 6e62 20bd
000000c0: bd22 ec3d fcfd ef3d 4936 f8bc 35ab 713c
000000d0: a383 06be 1644 133c a8f6 95bd a2c2 2a3e
000000e0: 3129 03bd 8b26 863b 7f8c d6bd 48fb ff3d
000000f0: ab79 38bd 1e0b 0fbe c2a6 473d f980 213d
-0.066762544 -0.10377349 -0.0875587 0.0044431896 -0.0084439665 0.03911787 0.010352292 0.061687198
0.014151868 -0.08783069 0.14241871 -0.121201314 -0.042687487 -0.07924664 0.13057055 0.067783244
-0.032494403 0.13902672 0.07523079 -0.11505733 -0.079926 0.02198804 -0.17882316 -0.07315716
-0.09366632 -0.025135292 -0.019380255 -0.026427463 -0.08999184 0.15543537 0.107004076 -0.030345174
0.10819461 0.029889172 -0.052698288 -0.012414473 -0.05356007 0.012221365 -0.0641055 0.13447993
0.22836064 -0.16809334 -0.13259779 0.12819369 -0.14681049 -0.01280014 0.16047235 -0.03915637
0.11530063 0.117183656 -0.030299323 0.014750292 -0.13136153 0.008988401 -0.073224366 0.16675809
-0.032021705 0.00409395 -0.10476016 0.124991 -0.045037907 -0.13969085 0.048743017 0.03942964

fc3.weight f4 [10, 64]
00000000: 240c a6bd f96e 01be 5fc0 37bd 5e2d 4dbe
00000010: c4b7 29be e0cc 0a3e dd76 373e 9cfe 84bd
00000020: 1eea e83c 10bb 9e3d a461 05bd c1d1 ec3c
00000030: 0d2d 0a3e af59 ce3d 38f0 f63d b102 563e
00000040: 119c 5bbe 843f 25bb 6677 0cbd 8116 61be
00000050: 7177 eebd a35e 1b3d 855e 6abe c56d de3a
00000060: 7328 39be 4f1c 99be 2c81 f7bd fd04 b1bc
00000070: 0ca9 50be 5d87 e43d 58ba 563d 49c6 23be
00000080: f7de 863d 0b44 1cbe fbf9 5b3d 6f97 54be
00000090: 9557 eb3d 8f05 003d e3f1 47bd 352a 6fbc
000000a0: 7121 74bd bd7f 13be f641 9f3d 5377 42be
000000b0: 8418 b83d 5adf 813d a729 1b3e 98a2 f83c
000000c0: 2b30 96bd b6bc 66be f475 303e 16fd e33d
000000d0: d0bf 033e fcc1 52be e3ba d93d 1e9d c7be
000000e0: a2bc 973d 4130 1cbe 5a74 963d ab42 303e
000000f0: b9f2 81be 8111 db3c 839f e23c b2ec a13d
00000100: 6892 3b3e de1c bfbd 1922 76be c468 00be
00000110: fdcf 2f3e b3f1 5bbe a050 823d 515c 143d
00000120: 58db 6bbe 1a1d acbe 2245 12be 8e0f 883c
00000130: db8b 76bd 6f4d 5f3e d4a9 3bbe ccd4 0abe
00000140: b012 e33d a800 49be 10dc 253e b639 043e
00000150: 335b b6be 7425 eabc 3932 d53d 380a b8bd
00000160: c1d5 403a b9bd 153e b594 07bd f6b9 833d
00000170: 360d 233d 61ff d1be 186a b8be 8d6d d2bd
00000180: e7ce bebd b445 1e3e 3584 c6bc 7de9 4cbe
00000190: 4605 92bb eaff 56be 0562 27be b2db 2dbe
000001a0: ec33 15bd 71c5 023e b41b 803e 1d7c bf3c
000001b0: 5687 19bd 88d1 31bd d0cd 41be e8c7 65bc
000001c0: a106 213e adc5 b93d a390 813e 1a4e 79bd
000001d0: d83e 68bc 0c42 48bd 2270 85bd f00b 37be
000001e0: 7416 bfbc 9ea6 c43d 6aaf 73bd 7d99 073e
000001f0: 147e 603e f244 83be 970e 18be 0fe1 68be
00000200: 84f5 663e 9e3c 98be 207d 19be 2e07 1c3d
00000210: d682 f6bd 7273 0e3b ca3d 03be b974 27be
00000220: fbb2 96bd e1b9 4d3e 1fd4 cb3d 99f2 6bbe
00000230: 166e 3cbe d98e a93c c481 fbbd 0bb6 bf3d
00000240: 11ad 033e 8d9b 55be 9a29 893d 89d2 093e
00000250: ae03 49bd f887 82be 6f10 423d 145a c5bd
00000260: bf8f 843d 6819 2fbe adcf 1ebc 6b4b 43bd
00000270: f063 823e cfd5 963c dbe7 02be d43c 79bd
00000280: 66b3 4d3e 96e3 113d d888 ce3d 49b0 4b3e
00000290: 3fa9 4a3d 7d92 933d 27bb 75bd d4e9 b7bd
000002a0: e331 843d 4452 aa3d b8a2 10be b4d0 cbbd
000002b0: c905 5d3d 9b9b 533b 5689 0b3d c0b9 9f3e
000002c0: 2fc6 8c3d 18ce f8bb 6ff9 33be c75f 16be
000002d0: 8687 643d 8122 c7bd e78d 0d3e d3b5 073e
000002e0: 4e5d bdbe 0f17 353e 485c e7bd 5fbf 253e
000002f0: 481c 8b3d 9f86 08be 1e27 87be 4476 c2bd
00000300: 9907 c0bd fbcc 8bbd 1321 3c3e 39f8 90bd
00000310: 4bc1 b33d 9664 31be a01a 88bd a914 653c
00000320: 0111 07be 9f10 d53b c98f 053e b4eb 5bbe
00000330: fa9b 3ebe 3e07 84be bc30 873d 83cb bfbd
00000340: 3850 1ebe 2a25 4abe 53cc 203e 17f9 aebd
00000350: e261 e53c be7d fbbd 5e3b 363e 070f 64be
00000360: fb3b b8bd eb76 d53d 2458 71bc a6c4 ecbc
00000370: 5453 50bd 1c3a 823d 150a 0abd 8f0f a3bd
00000380: cea2 c3bd 1862 31bd fc66 a5bc 0dbe 53be
00000390: fd1e b13d 6936 0f3e 8fb5 243e f573 82bd
000003a0: f56b bebc e0a1 153d add4 84be 58bd a33d
000003b0: 5b6e 18bd bba4 3fbe d6e4 893d ff55 a8bc
000003c0: 3738 d8bc a931 93bd 69e8 7fbe 0c57 2d3e
000003d0: 8a7e 41be 0d88 0f3e d9d0 c23d 2773 163e
000003e0: 9df0 5cbe 9c1f c3be 0ce0 45bc 5f79 b5be
000003f0: 9c1a c53d 6ccf eb3d 4be5 0e3e 64d0 4bbe
-0.081077844 -0.12639989 -0.044861194 -0.20036837 -0.16574007 0.13554716 0.17916436 -0.064938754
0.028431948 0.07750523 -0.03256382 0.028908612 0.13493748 0.100756995 0.12057537 0.20899464
-0.21446253 -0.002521486 -0.034293555 -0.21981241 -0.116438754 0.03793205 -0.22887619 0.001696997
-0.18081836 -0.2990441 -0.120851845 -0.021608824 -0.20376986 0.11158631 0.052423805 -0.15993609
0.06585496 -0.15260331 0.053705197 -0.20760892 0.11491314 0.0312553 -0.048814666 -0.014597465
-0.059602205 -0.14404197 0.07776253 -0.18990831 0.08989051 0.06341429 0.15152608 0.030350968
-0.07333406 -0.22532925 0.17232496 0.11132257 0.1286614 -0.20581812 0.10631349 -0.38987058
0.07409026 -0.15252782 0.07346411 0.17212932 -0.25380495 0.026741745 0.027663952 0.07906474
0.18317568 -0.09331678 -0.24036445 -0.12539965 0.17169185 -0.2147892 0.06363034 0.036220852
-0.23032892 -0.33615953 -0.14284185 0.01660898 -0.06019197 0.21806882 -0.18326503 -0.13557738
0.11087549 -0.19629157 0.16197228 0.1291264 -0.35616454 -0.028582312 0.1040997 -0.08986324
0.00073560706 0.14623155 -0.033100802 0.064319536 0.03980752 -0.4101515 -0.36018443 -0.102748014
-0.09316807 0.15456277 -0.024232963 -0.20010944 -0.004456195 -0.20996061 -0.16345985 -0.16978338
-0.03642647 0.1277063 0.25021136 0.023374612 -0.037482582 -0.043412715 -0.18926167 -0.014024712
0.15725185 0.09070907 0.25305662 -0.0608655 -0.014175139 -0.048891112 -0.06515528 -0.17875648
-0.023326136 0.09602092 -0.05949346 0.13242145 0.21923095 -0.2563854 -0.14849316 -0.22742103
0.22554594 -0.29733747 -0.14989138 0.038092785 -0.12036674 0.0021736291 -0.1281654 -0.1635312
-0.073583566 0.20090438 0.09952568 -0.23041762 -0.1840137 0.020697998 -0.1228061 0.09360894
0.12858988 -0.20860119 0.06697388 0.13459219 -0.049075775 -0.2549436 0.047378954 -0.09636322
0.0647273 -0.17099535 -0.009693068 -0.047679346 0.2546687 0.018412499 -0.12783758 -0.060849026
0.20087966 0.035617433 0.100846946 0.19891466 0.049477812 0.07205675 -0.059992936 -0.08980146
0.06454828 0.08316472 -0.14124572 -0.09951916 0.053960595 0.0032288793 0.03406652 0.31196404
0.06873738 -0.0075929277 -0.1757562 -0.14684974 0.055793308 -0.09723378 0.13823663 0.13252954
-0.36985248 0.17684577 -0.11296898 0.16186284 0.067925036 -0.13332604 -0.26397032 -0.09495214
-0.09376449 -0.06826206 0.18371992 -0.07078595 0.08777102 -0.17323527 -0.06645703 0.013981977
-0.1319008 0.0065022255 0.13043131 -0.21476632 -0.18614188 -0.25786775 0.06601092 -0.09364989
-0.15460289 -0.1974074 0.15702944 -0.08543604 0.028000776 -0.12279843 0.17796084 -0.22271357
-0.08995815 0.104230724 -0.014730487 -0.028902363 -0.050860718 0.0635874 -0.03370102 -0.07961952
-0.09552537 -0.04330644 -0.020190708 -0.20677967 0.08648489 0.139856 0.16084884 -0.06369773
-0.023244837 0.03653133 -0.2594351 0.07995099 -0.03721462 -0.18715183 0.067331 -0.020548819
-0.026393993 -0.07187206 -0.24991001 0.16927737 -0.18895927 0.14016743 0.09512491 0.14692365
-0.21576162 -0.38110054 -0.012077343 -0.3544416 0.09624216 0.11514172 0.13954656 -0.19903713

fc3.bias f4 [10]
00000000: 0cec a2bd 8ee0 11be 3f1a a7bd 3378 073b
00000010: d49a 043e 2f26 563c d06c 2bbd e47d 95bd
00000020: a2cf 7a3e e611 82bd
-0.079551786 -0.14245817 -0.08159303 0.002067101 0.12949687 0.013070627 -0.04185182 -0.07299402
0.24493268 -0.0635107
